2022-02-28 20:46:11,554 - train - INFO - Cascade_2D_M5(
  (conv1): Conv2d(1, 32, kernel_size=(3, 3), stride=(1, 1))
  (bn1): BatchNorm2d(32, eps=1e-05, momentum=0.1, affine=True, track_running_stats=True)
  (pool1): MaxPool2d(kernel_size=2, stride=2, padding=1, dilation=1, ceil_mode=False)
  (conv1_drop): Dropout2d(p=0.5, inplace=False)
  (conv2): Conv2d(32, 32, kernel_size=(3, 3), stride=(1, 1))
  (bn2): BatchNorm2d(32, eps=1e-05, momentum=0.1, affine=True, track_running_stats=True)
  (pool2): MaxPool2d(kernel_size=2, stride=2, padding=1, dilation=1, ceil_mode=False)
  (conv2_drop): Dropout2d(p=0.5, inplace=False)
  (conv3): Conv2d(32, 64, kernel_size=(3, 3), stride=(1, 1))
  (bn3): BatchNorm2d(64, eps=1e-05, momentum=0.1, affine=True, track_running_stats=True)
  (pool3): MaxPool2d(kernel_size=2, stride=2, padding=1, dilation=1, ceil_mode=False)
  (conv3_drop): Dropout2d(p=0.5, inplace=False)
  (fc_fuel): Linear(in_features=64, out_features=2, bias=True)
  (fc_config): Linear(in_features=64, out_features=3, bias=True)
  (fc_cyl): Linear(in_features=64, out_features=7, bias=True)
  (fc_turbo): Linear(in_features=64, out_features=2, bias=True)
  (fc_loc): Linear(in_features=64, out_features=5, bias=True)
  (fc_idle): Linear(in_features=64, out_features=2, bias=True)
  (fc_make): Linear(in_features=64, out_features=30, bias=True)
  (fc_oem): Linear(in_features=64, out_features=19, bias=True)
  (fc_disp_cls): Linear(in_features=64, out_features=37, bias=True)
  (fc_hp_cls): Linear(in_features=64, out_features=93, bias=True)
  (conv1_m): Conv2d(1, 32, kernel_size=(3, 3), stride=(1, 1))
  (bn1_m): BatchNorm2d(32, eps=1e-05, momentum=0.1, affine=True, track_running_stats=True)
  (pool1_m): MaxPool2d(kernel_size=2, stride=2, padding=1, dilation=1, ceil_mode=False)
  (conv1_drop_m): Dropout2d(p=0.5, inplace=False)
  (conv2_m): Conv2d(32, 32, kernel_size=(3, 3), stride=(1, 1))
  (bn2_m): BatchNorm2d(32, eps=1e-05, momentum=0.1, affine=True, track_running_stats=True)
  (pool2_m): MaxPool2d(kernel_size=2, stride=2, padding=1, dilation=1, ceil_mode=False)
  (conv2_drop_m): Dropout2d(p=0.5, inplace=False)
  (conv3_m): Conv2d(32, 64, kernel_size=(3, 3), stride=(1, 1))
  (bn3_m): BatchNorm2d(64, eps=1e-05, momentum=0.1, affine=True, track_running_stats=True)
  (pool3_m): MaxPool2d(kernel_size=2, stride=2, padding=1, dilation=1, ceil_mode=False)
  (conv3_drop_m): Dropout2d(p=0.5, inplace=False)
  (fc_misfire): Linear(in_features=64, out_features=2, bias=True)
)
2022-02-28 20:46:11,614 - train - INFO - Loading checkpoint: checkpoint/weights.pth ...
